gemtip/weights/weights-best.pt (torch, 207171 bytes, 10 tensors)

layers.0.weight f4 [128, 4]
00000000: 3dbf 22bd 87f4 6cbc 9225 12bc 8452 163d
00000010: 39bf 99c0 009d 14bf 37bd 57bf c074 22c1
00000020: eacc d03d a175 0ac2 1eff 093e ea19 79be
00000030: c73b d93c 8505 f9ba 32a1 c73c 44af 0ebd
00000040: 2e5a 39b9 b0d6 2e3d 6ef4 15bd f801 19bc
00000050: 8bdd 7a3e 910a df3e 38f8 9a3e ae4e 00c0
00000060: 2134 1f39 7d1e b6bb 5b5a 073d 6e8e cfbc
00000070: b641 303c 65bd 10c0 cb7c 83c1 5e98 b7c0
00000080: c7ec cbbc 2c5e 983e 6cfc 8dc2 4553 393d
00000090: 320b c8bf 2937 bfbf cd18 2bc0 101d 2fc1
000000a0: 6a24 c2c0 a7bd 24be 2608 09c1 ffee 31c0
000000b0: 9c19 a33c d4f1 6fbb d31a 223c 3699 1d3c
000000c0: c218 1bbf cc8d a0c0 e751 a2c0 1c3e 323e
000000d0: 8cf0 923e 3035 24c1 e0b8 8abb b825 7dbb
000000e0: c72e 1cc0 b2c2 873e e7ce 3cc1 c828 ecbf
000000f0: 6de7 873e c542 50bf 81ba 01c1 b961 303f
00000100: 4960 75bc 3eaa 36be 728f f0bd 8b4c 7bc3
00000110: 82ab 063e 0411 19bd 8010 bdbe f5e0 f13c
00000120: 76bb 6f3e a6aa 253e 2020 c3c1 51e3 ed3e
00000130: 3dbf d63c 0f01 c0bb fc23 89b9 8547 fcbc
00000140: 8838 0b3f 4d7a 16c2 9665 cdbd c5cb c23d
00000150: bd6e abc2 9eeb bb3d 2b5a 333e b436 2cbc
00000160: fc7c a4bf c397 bc3f f4d8 843d 7031 2dbf
00000170: dfb4 19c0 2627 1dc0 2d63 45c1 9760 96bf
00000180: 5c32 b1be 1edb d4c2 98c5 d93d d59c 9fbd
00000190: e4df 9cbf a94b 0bc0 60a1 93c0 cf6a 70c0
000001a0: 4fd5 4dc0 ed2b 773f 749f cc3e f834 35c1
000001b0: 1130 80c0 6915 d1bd 3215 f4bf c62c cabf
000001c0: 2bb6 aa3c c8c0 96bc 7e7c 043d c8b4 85bc
000001d0: 211c f2be 4df4 0e3f cf9d fa3e 3947 71c1
000001e0: 19e4 0ebd 4539 133c 8799 8bbc 1a6b 143d
000001f0: 64d4 37c1 d9b3 0a40 75e8 a73d caca 8fbe
00000200: 6857 aebd eabb 56bc 082b a4bc d8f7 a73d
00000210: 3d45 1040 534e fabf 1603 06c1 ce2d edbe
00000220: 2cad ccbc 9c24 903c dd70 1fbd f94d b23c
00000230: 574b 59be 2fc6 0a3f fc07 92be d945 20c2
00000240: 95a0 183c 8261 46bd d955 923c 5a01 6a3c
00000250: 96a5 803f 4441 51c0 e6f9 6d3e 2163 903e
00000260: fd20 8abe 617f ee3e 4b14 6c3f ae1f a4c0
00000270: 3e2a 223f 61db 4cbd 6a5b b3c0 e83f 32c0
00000280: d6b2 8bc0 1ab1 7fc1 1a98 8dbd 9f76 bdbd
00000290: c96a 883f e1bb 74bf 0426 f63e 5fbb a0be
000002a0: 2d1a 8f3c 6caa 04bd 9766 403d 3794 42bd
000002b0: 570e b03c f877 71bc 46e6 2a3d e1d6 fabc
000002c0: 7971 a9bf 6329 5ac0 2a45 fdbe 6e8e 29bf
000002d0: cfd6 45bd b4f1 e43c 0844 5f3b 6912 a23c
000002e0: abc5 03bd 60e0 703c 38d5 dcbc 9442 3b3d
000002f0: 1460 963c 1ea6 31bb 4939 333d 78fe 34bd
00000300: ac10 aac0 c8f7 bc3f a863 c9c0 a2e9 d5bc
00000310: 2cf4 07bd ec46 943c 44ae bfbc dc87 ec3c
00000320: b729 6ebb bd34 0cbd 3cf2 1c3d 3d22 66bc
00000330: ddee 5bc0 d78d a9c0 7f5d e4bf efc7 6ac0
00000340: 8156 fabf 0a49 db3e af6c a9c0 92b9 3b3f
00000350: 6743 e5be 3af4 cdbe 4a87 f7bf 8249 80c0
00000360: f72c dabf d050 e13f b0ff f73c 17c9 623e
00000370: 8242 34c0 c74b 5cbf 21f6 7ac1 4a71 bebf
00000380: cf08 863d d7e1 c0bc fefa 0f3d 5979 4ebd
00000390: e8dc 51c0 ecaa e9bf 2a68 7ec0 3938 d8bf
000003a0: 4b11 0abb 45d8 f4bf 322a ae3d 834d 2fbf
000003b0: 4031 a5c0 635c 053f 91f9 2bc0 ba37 16c0
000003c0: eb4f 123d 5819 05bd 086b d43c b5fe 04bd
000003d0: 973f e53c 9e53 823c a622 f9bc 6d9c bcbc
000003e0: c0d1 4bbf 0718 3f3f a5d9 bbc0 c2ca 3ec1
000003f0: 6d75 22c0 a412 01bf 8dfc e3bf 0c1e d7bf
-0.03973316 -0.014462597 -0.00892009 0.036699787 -4.8045926 -0.58052063 -0.84273094 -10.153503
0.10195334 -34.614872 0.13476226 -0.24326292 0.026517762 -0.0018998837 0.024368856 -0.034835115
-0.0001767657 0.04268521 -0.03661006 -0.009338848 0.24498574 0.4356275 0.302675 -2.0048022
0.00015182841 -0.0055578337 0.033045154 -0.02533647 0.010757854 -2.2615597 -16.435934 -5.7373495
-0.024893178 0.29759347 -70.99301 0.045245428 -1.5628417 -1.4938709 -2.6733887 -10.944595
-6.066945 -0.16087972 -8.564489 -2.7802122 0.019909672 -0.0036612647 0.009894091 0.009619048
-0.6058465 -5.017309 -5.072498 0.17406505 0.28699148 -10.262985 -0.0042334646 -0.0038627218
-2.440355 0.26515728 -11.800513 -1.8449945 0.2654375 -0.8135188 -8.108033 0.6889911
-0.014976569 -0.1783838 -0.1174611 -251.299 0.13151363 -0.037369743 -0.3692665 0.029526213
0.23411354 0.16178378 -24.390686 0.4646249 0.026214236 -0.005859501 -0.00026157487 -0.030795822
0.54383135 -37.619434 -0.100291416 0.09511522 -85.716286 0.091758 0.17514865 -0.010511089
-1.2850642 1.4733814 0.06486693 -0.6765356 -2.4016645 -2.4555144 -12.336713 -1.1748227
-0.34608734 -106.42796 0.10633391 -0.07793585 -1.2255826 -2.176493 -4.613449 -3.756519
-3.2161443 0.965514 0.39965403 -11.325432 -4.0058675 -0.10209162 -1.9068968 -1.5794914
0.020838818 -0.018402472 0.032345288 -0.016321555 -0.47287086 0.55841523 0.48948523 -15.079888
-0.0348855 0.008985822 -0.017040981 0.036234953 -11.489353 2.167227 0.081986345 -0.28084403
-0.08512765 -0.013106326 -0.02004005 0.08201569 2.254226 -1.9555153 -8.375753 -0.4632401
-0.024984919 0.017595582 -0.038925994 0.021765696 -0.21220146 0.54208654 -0.28521717 -40.06821
0.0093156295 -0.048432834 0.017863201 0.014282549 1.0050533 -3.2696085 0.2323986 0.2820063
-0.26978293 0.46581557 0.92218465 -5.128867 0.63345706 -0.050013904 -5.604909 -2.7851505
-4.3655806 -15.980738 -0.06913777 -0.09251141 1.0657588 -0.9559918 0.4807588 -0.31392953
0.017468536 -0.03238909 0.046972837 -0.04750463 0.021491213 -0.014738075 0.041723512 -0.03062004
-1.3237754 -3.408776 -0.4946683 -0.66232955 -0.04830056 0.027947284 0.003406765 0.01978417
-0.032170933 0.014701933 -0.02695714 0.04571779 0.01835636 -0.002710707 0.043755803 -0.044187993
-5.314535 1.4763117 -6.293415 -0.026112381 -0.033191845 0.018100224 -0.023398526 0.028873377
-0.0036340782 -0.034229983 0.03831695 -0.014046249 -3.436454 -5.2985644 -1.7841033 -3.668453
-1.9557649 0.42829162 -5.294517 0.7333003 -0.44777986 -0.40225393 -1.9338162 -4.008973
-1.7044972 1.7602787 0.030273288 0.22147022 -2.8165593 -0.8605313 -15.68509 -1.4878323
0.06544649 -0.023545189 0.035151474 -0.050408695 -3.279108 -1.8255286 -3.9751077 -1.6892158
-0.0021067436 -1.91285 0.08504142 -0.6847765 -5.162262 0.52094096 -2.6871073 -2.3471513
0.035720747 -0.032494873 0.025929943 -0.03246947 0.027984424 0.015909012 -0.03041203 -0.023023808
-0.7961693 0.7464604 -5.870318 -11.924501 -2.538417 -0.5041907 -1.7811447 -1.6806045

layers.0.bias f4 [128]
00000000: 57d4 e839 ce7b 60c0 fb59 46c0 4623 803c
00000010: 172b 6f3b 10ca 83bf 6988 9f3c 3dcb 83c0
00000020: 831e 26c0 d1b0 73c0 6b07 b7c0 4a3c 363c
00000030: 7191 72c0 aff9 7abf 50e3 87c0 e7f4 0dc0
00000040: 1d84 183f 312e bb3d 3bec 1bc0 0474 a83c
00000050: 78b1 3c3d 3f33 253e ee19 3840 77dd 82c0
00000060: e3af b13e 7eb8 a4c0 43e0 9ec0 5b64 b4c0
00000070: 72bd a13b 5b98 19c0 d06d 2e3b 10dc 15c0
00000080: 2f9c d0bc 0f8b 90c0 78d7 c1bb 798f 26c0
00000090: 7cdb 9c3c 618e fbbe abb3 ccbf 7310 94c0
000000a0: 1737 22c0 433e 2a40 29bd ef3c 612c 893b
000000b0: 7548 0ac0 e243 063c 68bb 24bb adfd 7d3c
000000c0: 7cf0 59c0 e639 3ebb 0fe1 503c e5b6 9dc0
000000d0: 18ce 4bbf 6867 68c0 3931 3abf e5ba 90c0
000000e0: 9b5a 163b c56b b2c0 f9e3 79bd cf8a a8c0
000000f0: 895d d4bb b635 18bd 9d92 46c0 6661 bbc0
00000100: 231c 3bbc 2b99 f33a d1c8 70c0 c379 bdc0
00000110: 368c bfbf 4cfd 8fba 831f 283d 28cb f5bf
00000120: feeb 56be ddff 60bb e372 6bc0 996e 24c0
00000130: a131 0abd 619d bec0 c283 c93a b9b2 4ec0
00000140: 6777 8c3c 3ff1 ae3b 265e 21bf 525d 13bc
00000150: dfaa 6abf 288d 40c0 ad59 4fc0 8230 8a39
00000160: 7994 ec3b e770 a4c0 8af8 e4b9 ca91 1bc0
00000170: c402 273c a466 bdbe 05c9 0abd 13d7 44c0
00000180: b1a9 8fc0 a6b8 ecbf 3e1b f9be 8acb 14c0
00000190: 0eba 0ec0 3e4e a5bc 13ac 60c0 92a4 a5c0
000001a0: bd93 a6c0 19f1 ffbf 094a 22c0 93af 2ac0
000001b0: b018 8dc0 b075 67bc ba94 6bbf 9006 81bc
000001c0: faed 17bb 32b9 bc3a 7f96 38be a223 72c0
000001d0: 6bed 703e 5b47 0fbf 07e8 47be 4ccd bac0
000001e0: 8637 193c 3be3 fdbb 88d7 1bbf 99c4 15bd
000001f0: da78 febf 38d7 cf3e 518d 263d 6af7 08c0
0.00044408694 -3.5075564 -3.099242 0.01564182 0.003649419 -1.029604 0.019474225 -4.1185594
-2.5956123 -3.807667 -5.7196555 0.0111227725 -3.790127 -0.98037237 -4.246498 -2.2180727
0.5957659 0.0913967 -2.4362934 0.020563133 0.046067685 0.1613283 2.8765826 -4.0895343
0.34704503 -5.147521 -4.9648757 -5.6372504 0.0049359137 -2.399924 0.0026615746 -2.3415565
-0.0254651 -4.516975 -0.0059155785 -2.6025069 0.019147627 -0.49132064 -1.599233 -4.627008
-2.5346124 2.6600502 0.029265003 0.0041861986 -2.1606724 0.008194895 -0.0025136117 0.015502376
-3.405303 -0.002902621 0.012748971 -4.928576 -0.7961135 -3.6313114 -0.7273136 -4.5228143
0.0022942189 -5.5756555 -0.061008427 -5.2669444 -0.006480877 -0.037160598 -3.1026986 -5.8556395
-0.011420283 0.0018585076 -3.7622569 -5.9211135 -1.4964664 -0.0010985523 0.041045677 -1.9202623
-0.20988461 -0.0034332194 -3.6788871 -2.5692503 -0.033738736 -5.9567113 0.001537435 -3.2296584
0.01714678 0.0053388174 -0.63034284 -0.008994417 -0.9166698 -3.0086155 -3.2398484 0.00026357552
0.0072198478 -5.138782 -0.00043672725 -2.4307733 0.0101935305 -0.3699237 -0.033883113 -3.075627
-4.4894643 -1.849385 -0.48653597 -2.324923 -2.2301059 -0.02017891 -3.5105026 -5.176339
-5.2055345 -1.9995452 -2.5357687 -2.6669662 -4.4092636 -0.01412718 -0.92023814 -0.0157502
-0.0023182617 0.0014398454 -0.1802616 -3.7834249 0.23528068 -0.55968255 -0.19522105 -5.8375607
0.009351617 -0.0077480352 -0.6087575 -0.036564443 -1.9880631 0.40593886 0.040662114 -2.140101

layers.1.weight f4 [128, 128]
00000000: 8c58 133d 3b93 0b3f a16e 2840 29c1 4f3c
00000010: a00d 713d 409f abbf c980 cbbc eae3 63c0
00000020: f062 61bf 5070 dcbd 1cb9 c4bc 3d48 8a3b
00000030: bbfd 223f 0081 893e 782b 88be 0d38 bcbf
00000040: de42 4bbf 800e dbbd ee2a 83bf d378 d03b
00000050: 21e4 4d3f c1db db3f def5 9dbf 14a9 4ebf
00000060: 5e37 8140 9952 06bf a8a1 a93f 4c7b c9be
00000070: dd02 3dbd 6273 583e 3dd8 513b 3dc8 e63f
00000080: 2c26 1e3c 5a3a 1f3f f3c6 f13b df1a eb3f
00000090: 4868 dc3c 04f5 c7bf 6282 7ec0 a060 c43e
000000a0: f51f 9c3f 70b7 29bf ed75 13bd 6f9b ac3c
000000b0: 1d84 e63e 84ec cdbd ece1 bebc 52bf a9bd
000000c0: 9ae2 dfbf 80d8 483b f739 35bd 2edd 04c0
000000d0: ff77 9abf 2ee5 563d ef24 fb3f d370 58c0
000000e0: 2c73 023d 1b66 2dbf 1645 19c0 f603 4abf
000000f0: 6410 4e3d eb19 9fbc c28a b83f a333 79bf
00000100: 95dc f1bc 4cf0 a5bd 762e 7740 76e7 063f
00000110: 30ff 573e 7b4c dd3c 3583 9bbd 9951 33be
00000120: a0ed af3e f6a5 893d 7132 acbe 8672 8240
00000130: 412e 0c3f 2d19 e5be a195 e4bc 0a29 db3f
00000140: 4ce5 f43c 0b7f 3c3c e62b 8ebe cfe6 64bb
00000150: 94db 6abf 0e45 e6bf 4b16 333f b91b b73c
00000160: a87d 76bc 124f 09bf d0ea 17bd b714 02bf
00000170: a857 0bbc 0213 3ec0 f9ad 933a a165 813f
00000180: 4717 943e f71e 36bd dfe9 03c0 f554 4340
00000190: 8a59 9f40 be2c 703d db57 eb3f fd07 99bf
000001a0: 5e74 cf3f 4d5a 04c0 a739 333f a1e0 b2bd
000001b0: d51b 1fbf 4cfd cfbc 7211 8fbc 0316 82bd
000001c0: 4575 053d 54e2 a43c 4968 aa3f 79e6 2c40
000001d0: 3023 92bf bafc d7be 5f1a 88bf 41a3 26be
000001e0: 2916 eebc 7cb0 13bd c694 0c40 3000 ee3d
000001f0: ab5a f93e 4092 7540 43e5 db3b 96d6 84be
00000200: 27a9 9d3b 0c27 b23f d7cc aa40 1c40 c5bd
00000210: c09b fe3d 2dcf 4640 3747 88bc b00d babb
00000220: 7ec8 323f 7473 403e 5c30 5fbd 963f 18bc
00000230: 9040 5d3f 0421 fc3f fde2 ad3f c6e5 a83f
00000240: 61f0 bc40 b320 5cbf f306 83bb b246 f8bc
00000250: 4e1f 583e b735 11c0 a478 9fbe 8b4d 013f
00000260: 9936 f63f fe2a 7c3f cff1 c53f be6b 11bd
00000270: bf06 fbbb b883 10c0 8336 ee3b d417 91bf
00000280: 3f83 003e 0e8f c13f 8132 2cbc c3dd 93c0
00000290: 99e2 003e 68f7 41c0 70d5 bb3f efb3 e03f
000002a0: dbf3 2140 081d bbbf 005a f3bd 7fe1 e23d
000002b0: 8b94 233f 14de 80bd 977f d93c 827f fabd
000002c0: be42 c2bc e77a 34bd 5744 8dbb f0c7 f1be
000002d0: f696 f93f bf9f c73f 5c22 273e 764f f3bd
000002e0: b7c8 f53b f316 f23d ae8f 9cbd 1f8e 083f
000002f0: 140e f5bc ddd8 413c 259e f3be 3ae4 a53e
00000300: 645e 4e3d 8d0e 30bd c90b 3540 c690 443f
00000310: 36ba 383f 5e57 a3bd 052f 403d 1299 00bf
00000320: d2f0 7dbe 5bac bcbb 31b6 fb3f cad3 2d3f
00000330: c736 06bc d22a 06bf 37bc aa3c 45dc 47c1
00000340: 491b 9bbd d323 a2bd e37f 583f b27f fd3c
00000350: bf65 1240 11ad 93bf 8dde ab40 3064 043d
00000360: 5f06 8dbb 85fa d3be 7871 acba af68 2e40
00000370: 93a0 133c ec57 52bf 149b 8fbd 50c1 78be
00000380: 8bdf 8bc0 88cd 913f fcb9 a8bf d99d 49c0
00000390: 9db8 9f40 297e 133d 713e 1a40 9006 09be
000003a0: 045b 7a3f 4876 18bf 576a 0cc0 56c7 91bf
000003b0: bc44 4bbe 197f 30bd 4006 a23f de00 d43a
000003c0: 92b6 723c 9dfc ae3d 8adc eabe 79d2 9c3f
000003d0: f5d4 0abf 649e 353f 63e6 1f40 f55a 30bf
000003e0: bc30 b83d 6970 8fbb 7c08 0040 619c 65bc
000003f0: 05ac 5fbf 71eb 223f 20bd 4d3d 7b2e 7bbd
0.035973117 0.5452153 2.6317523 0.01268033 0.058850884 -1.3407974 -0.024841683 -3.5607858
-0.8804159 -0.107636094 -0.024014048 0.0042200373 0.6366841 0.26856232 -0.26595664 -1.4704605
-0.79398906 -0.10696125 -1.0247476 0.0063620596 0.8042622 1.7176439 -1.2340658 -0.8072674
4.0380087 -0.52469784 1.3252459 -0.3935188 -0.04614531 0.21137765 0.0032019757 1.8029858
0.009652656 0.6219841 0.007378453 1.8367575 0.026905194 -1.5621648 -3.976708 0.3835497
1.2197253 -0.6629553 -0.036001135 0.02107021 0.4502267 -0.100548774 -0.023301087 -0.082884446
-1.7491028 0.0030646622 -0.044244733 -2.0759997 -1.206787 0.052464657 1.9620646 -3.3818862
0.031848118 -0.67733926 -2.3948417 -0.78912294 0.0503086 -0.019421538 1.4417346 -0.97344416
-0.029524127 -0.081024736 3.8622108 0.5269693 0.2109344 0.027014008 -0.07593385 -0.17511596
0.3436098 0.06721108 -0.33632234 4.07648 0.5475808 -0.4474577 -0.02790338 1.7121899
0.029894494 0.011504899 -0.27767867 -0.0034927612 -0.917413 -1.7989824 0.6995589 0.022352086
-0.015044607 -0.53636277 -0.03708917 -0.5081286 -0.008504786 -2.9699101 0.0011267058 1.010914
0.2892401 -0.044463124 -2.0611494 3.0520604 4.97968 0.05863642 1.8386186 -1.1955563
1.6207387 -2.0680115 0.70009845 -0.08734251 -0.62151843 -0.025389336 -0.017464373 -0.06351855
0.03258254 0.020127453 1.3313075 2.701567 -1.1416988 -0.42185003 -1.0633048 -0.16273214
-0.029063301 -0.03605698 2.1965804 0.116211295 0.48701987 3.8370514 0.0067106797 -0.25944966
0.0048114243 1.3918166 5.337505 -0.096313685 0.12432051 3.106395 -0.01663552 -0.005677901
0.69837177 0.18794042 -0.05448948 -0.009292504 0.8642664 1.9697576 1.3584896 1.3195121
5.904343 -0.85987395 -0.003998631 -0.030307148 0.21105692 -2.2689035 -0.3114673 0.50508946
1.9235412 0.985031 1.5464419 -0.03550314 -0.0076607163 -2.2580395 0.007269682 -1.1335397
0.12550066 1.5121782 -0.010510088 -4.6208205 0.1258644 -3.0307255 1.4674511 1.7554911
2.5305088 -1.4618235 -0.118824005 0.11078166 0.63898534 -0.06292358 0.026550097 -0.122313514
-0.023713466 -0.04406252 -0.0043111253 -0.47222853 1.9499195 1.5595626 0.16321701 -0.1188039
0.0075007337 0.118207835 -0.07644592 0.5334186 -0.02991394 0.011831489 -0.47581592 0.32400686
0.050382987 -0.042982627 2.8288443 0.76783407 0.72159135 -0.07975648 0.04691984 -0.50233567
-0.24798897 -0.005757851 1.9664975 0.6790129 -0.008191771 -0.5240909 0.020841701 -12.491277
-0.075735636 -0.07916989 0.8457014 0.030944679 2.28746 -1.1537191 5.370917 0.03232211
-0.004303738 -0.4140207 -0.0013156375 2.7251394 0.009010452 -0.8216541 -0.07012001 -0.24292493
-4.371038 1.1390848 -1.3181758 -3.1502593 4.991286 0.036008988 2.4100611 -0.1338141
0.9779513 -0.5955548 -2.1939905 -1.1388958 -0.19850439 -0.04308996 1.2658157 0.0016174575
0.014814036 0.08544276 -0.45871383 1.2251731 -0.54231197 0.7094481 2.4984367 -0.6888879
0.0899367 -0.004377414 2.0005178 -0.014014334 -0.87371856 0.63640505 0.05022919 -0.061323624

layers.1.bias f4 [128]
00000000: f3ab f9bf c164 64bf 6bd2 0dc0 5cf0 983f
00000010: 650b f83e fa4f a9bf 1f55 6dbf d5bd dfbf
00000020: 1afd 06bf e414 b9bf 09bc 6dbe f67a 03bf
00000030: c91b eabf e9b9 883e 4ca0 cebf 33ce aabf
00000040: 156e 4cbf 0e8d 58bf 924e 8dbf ef38 8bbf
00000050: a334 32bf 9de5 04c0 a16f 7a3f ae1f 8fbf
00000060: f52e a6bf 63c9 7fbe cd79 24be 68d0 0ac0
00000070: 44cc 31c0 6567 c3bf dffe 26be 78cd 323e
00000080: 636b e0bd 2c69 96bf a91d 05bf a711 c8bf
00000090: fa8b c3bf 8fb4 94bf b199 bebf 47f4 30bf
000000a0: 7fe9 9abe 66fe d1bf 99d5 ecbd 431a 51bf
000000b0: 395a 31bf 99d0 9bbf d726 bfbf 6eb8 22c0
000000c0: 43a3 95be 7657 49bf 32be 12bf 591f 69be
000000d0: b9ed dabf 7b1e c4bd d7a2 0cbf 01df 46bf
000000e0: 5b4f f3be 073a bebf 3959 59be e146 80bf
000000f0: 8778 b6bf e7b4 6cbf a8c2 3d3d 926f 99bf
00000100: 7cae 3cbf 44df eabf b9d4 0ac0 192c 163f
00000110: 6600 dfbe b95d 01c0 56e1 4abe 3b59 05c0
00000120: f612 1dbf c80d 00c0 c31e 9dbf 1ef7 88bf
00000130: 9dc3 d83f 42fa 30bf 72c5 223f 38aa 89bf
00000140: 9b89 0ec0 cc4d 10bf a794 bdbf 2141 a1bf
00000150: 15ce 033f 2bdc a4bf b81c d3bf d51b 29bf
00000160: 774e 98bf bde8 8abf b9d9 10c0 1220 0cbf
00000170: ed72 d6be bd2b 2fc0 517e dcbf 06a5 c4be
00000180: 6e39 b7bf d9b0 7ebf 4008 d23e 9d3f cebe
00000190: cc0c 283f ff10 2cbc 481d 5bbf a092 28bf
000001a0: caaf 2abf e85c 07bf e898 c7bf 394d 92bf
000001b0: f15c bbbf a33e 4cbf 7e65 e6be 8e20 f9bf
000001c0: adb6 763b 765a aebf f4ff fc3d 64a8 7ebf
000001d0: 8452 ffbf 8d15 d6bd 30f7 c2be 3255 b3bf
000001e0: 4a12 90be 6028 43bf 58b4 b4bf 29eb 2bbf
000001f0: 39ce 8fbf 0e60 e8bf 93de acbf ef1d 80bf
-1.95056 -0.8921624 -2.215968 1.1948352 0.48446193 -1.3227532 -0.9270801 -1.7479807
-0.5272995 -1.44595 -0.23216261 -0.513595 -1.8289729 0.26704338 -1.6142669 -1.3344177
-0.7985547 -0.8459023 -1.1039603 -1.087675 -0.6961157 -2.0765145 0.9782658 -1.1181543
-1.298308 -0.24979167 -0.16062088 -2.16897 -2.7780924 -1.5265929 -0.16308163 0.17461193
-0.109579824 -1.1750846 -0.5199838 -1.5630387 -1.5277092 -1.1617602 -1.4890653 -0.6912274
-0.30256268 -1.6405761 -0.11564178 -0.816807 -0.69278294 -1.2173034 -1.4933728 -2.5425067
-0.2922612 -0.7864908 -0.57321465 -0.22765864 -1.7103797 -0.09576126 -0.54935974 -0.77684027
-0.4752148 -1.4861459 -0.21225442 -1.002163 -1.4255532 -0.92463535 0.046328217 -1.1987174
-0.7370374 -1.8349385 -2.1692336 0.5866104 -0.4355499 -2.0213454 -0.19812521 -2.0835712
-0.6135706 -2.0008411 -1.2275013 -1.0700414 1.6934696 -0.69131863 0.6358253 -1.0755072
-2.2271488 -0.5636871 -1.481099 -1.2598001 0.5148633 -1.287969 -1.6493139 -0.66058093
-1.1898946 -1.0852276 -2.2632887 -0.54736435 -0.41884556 -2.7370446 -1.7226049 -0.38407153
-1.4314401 -0.994886 0.4102192 -0.40282908 0.65644526 -0.010502099 -0.85591555 -0.6584873
-0.6667448 -0.5287614 -1.5593538 -1.1429816 -1.4637738 -0.79783076 -0.44999307 -1.946306
0.0037645504 -1.3621356 0.12353507 -0.99475694 -1.9947057 -0.10453329 -0.38079214 -1.4010375
-0.28138953 -0.7623348 -1.4117537 -0.671557 -1.1234809 -1.8154314 -1.3505424 -1.0009135

layers.2.weight f4 [128, 128]
00000000: c0e3 c73e 395e 9e3f d728 cb3e 74f2 9f3f
00000010: d8ee a4bf 1025 b6bf 9cbc e83f 8c52 0bbf
00000020: 25e4 ac3e 0a13 ad3e a2e2 4cbf 6b12 18c0
00000030: 941a 043e 1244 f6bd 696c 2140 d82d 1fc0
00000040: f4ee 603e b373 40bf 9937 1f40 6a6f d93e
00000050: 7cb5 003e d02c 2ebf c600 02bf 412d 0cc0
00000060: a8dc 8c3f 9b48 0240 4e2c f43f 2659 b63e
00000070: b482 b5bf 933c d73e 765a 17bf 7bd0 bdbf
00000080: 4348 113e 37d5 d13f 3fb3 e8bf fb3a 1740
00000090: a12c 853e 4701 ad3e 92c6 1bbf d4a3 c0bf
000000a0: 5d3c 76bb 1de0 adbf e458 87be 4dab 62bf
000000b0: f13d a6bf 8da8 47c0 2e09 c6bf f38e 803f
000000c0: 920a a63b 721e e8bc 5d68 f4be 06d0 af3f
000000d0: 1735 cf3f 6950 babf f5c1 5bbf 6821 2dbd
000000e0: a363 923f 317e 06bc cde5 38be f698 16bf
000000f0: 2bac 2440 81e7 6c3f 7815 f73f ab43 6fbf
00000100: d8f7 e0bf 3b4b 52bf cf60 3340 cd30 423f
00000110: 81e8 8b3e faa2 f5bf cc26 d03f 4852 babd
00000120: 1b05 523f e615 293b a432 1ebe d5b2 11bf
00000130: fa13 4ebe ca40 29c0 35d4 0abf a17d c43f
00000140: 4e9d acbf 335e 4140 319d 8b3e b444 a63f
00000150: 8a52 02bf 5e31 8c40 e036 033e 5c10 673d
00000160: 8e96 3440 b5cc ab3f 4a45 713f 5608 673f
00000170: fbba 21bf 8f23 0bbf 1b42 6c40 3112 973f
00000180: 8717 053e 98a7 053f 5fae fbbf c639 6fbf
00000190: 6c4f 0c3f d47e 9e3f 6e06 853f c666 91be
000001a0: 71cc ef3f a9c0 19be 84ad 9ebf c7b9 963f
000001b0: 2fad 17c0 bbb8 a2bf 36bc 99bf f983 3240
000001c0: 04dd 073e e3f4 8b3f 1cf6 0abf 129b 29c0
000001d0: 2c08 a8be 0c8b 183f d04d 0640 e7c4 90bf
000001e0: de1c f7bf 1b79 c7bf 39c7 203e cd79 e13f
000001f0: 812a 023d a8b8 75bf a063 183f d363 a1bf
00000200: 1f80 9340 2f2e 0cbf 2288 233f 9995 9f3e
00000210: bf54 cebe 5766 20bf 48a9 8a3f d743 c6be
00000220: ca78 2bbd f982 dfbe 4db4 1b3c 7f7c 7740
00000230: cd85 3e3f da5c 8ebf a97b e83e 142b bb3e
00000240: c5a3 37bd bcf6 e0bf a771 0bbf d3e1 e9bf
00000250: edda 1abf 9add ef3d 07a2 94bf 1c38 483f
00000260: 3150 5840 6497 e8be 75f7 b9bf b425 b43d
00000270: 5fd1 46bf 2f5a 42bf 5c3e 623f 5aad 953f
00000280: b8a7 013e 4cc5 213e ee46 4640 62dc 0140
00000290: 7336 de3e 514e 97bf 05b5 8d3f f431 fabe
000002a0: 817b 043f 4e8c dfbf 179f 6cbf da9c ebbe
000002b0: ef52 26c0 832f 5c3f 5667 0940 9e9f af3f
000002c0: d572 6740 0b50 43c0 f651 98be 2555 59be
000002d0: ae36 e03e b30e 2b3c 9094 35bc 7e94 91be
000002e0: 12b9 4240 0552 893e 32a3 c2bc 733d 0640
000002f0: 545b cd3d d66c ae3f 930c 46bf e3f2 8e3e
00000300: 831e f3bf 8643 763f 2844 8a40 654d b03f
00000310: 1b75 9cbe 7d8f 3c40 7419 8a3f fa65 3840
00000320: 9a2f f7bd e587 2dbf a155 a640 f6a5 4a40
00000330: 4e47 21bf feb9 11c0 7b5a 30c0 1d68 d73f
00000340: 91e4 7840 4fdd 1040 ec3a 99bc de8e 0c3f
00000350: 0af1 d03f d0dd e53f 605f ef3f 671b d9bf
00000360: 25e4 7cc0 92de 333f 521a 33c0 b29c c4be
00000370: a777 cdbf c49c 7a40 e718 c33f b75e b5bf
00000380: 6245 2040 33af 6340 3256 813e 00f9 ccbf
00000390: 9787 acbf 1542 3bbf 265e 4bbf 6d19 75bf
000003a0: ad13 cc3f c6d4 60bd ebeb 0140 6a2b a83f
000003b0: e473 853f dffd dd3f 2a2d 803f bd99 5c3c
000003c0: fda9 24be fa05 fabe c876 05bf b46c 50bf
000003d0: e5a4 6240 621d f1be 19c3 68bf 62de 683d
000003e0: b989 debf 533c 1dc0 7924 b7bd c8f8 c3be
000003f0: ecfb a7bc 771b 81bf 23b6 37c0 1c85 ed3e
0.39040947 1.2372504 0.39679596 1.2495866 -1.2885389 -1.423006 1.8182559 -0.5442283
0.3376781 0.33803588 -0.80033314 -2.3761241 0.12900764 -0.12024702 2.5222418 -2.487173
0.21966153 -0.75176543 2.4877684 0.42467815 0.12569231 -0.6803713 -0.5078243 -2.190262
1.1004839 2.0356815 1.9076021 0.3561489 -1.4180512 0.42038402 -0.5912241 -1.4829248
0.14187722 1.6393193 -1.8179702 2.362975 0.26010612 0.33790037 -0.6084987 -1.5049996
-0.00375726 -1.3584019 -0.26435006 -0.88542634 -1.2987653 -3.1196625 -1.5471551 1.0043625
0.005067178 -0.02833483 -0.47735873 1.3735359 1.6188077 -1.4555789 -0.8584283 -0.042268187
1.1436657 -0.008208797 -0.18056412 -0.5882715 2.5730083 0.92540747 1.9303427 -0.9346263
-1.7575636 -0.8214604 2.8027837 0.75855714 0.27325824 -1.9190361 1.626184 -0.09097725
0.8203904 0.0025800406 -0.15449005 -0.569135 -0.20124808 -2.6445794 -0.5423005 1.5350839
-1.3485506 3.0213745 0.27268365 1.2989717 -0.50907195 4.3810263 0.12813902 0.056412086
2.8216891 1.3421847 0.9424635 0.90247095 -0.63175935 -0.54351133 3.6915348 1.1802427
0.12997256 0.5220885 -1.9662589 -0.9344753 0.5480869 1.2382455 1.0392587 -0.28398722
1.8734266 -0.150149 -1.2396703 1.1775445 -2.3699453 -1.2712625 -1.2010562 2.789305
0.13267905 1.0934108 -0.54281783 -2.6500897 -0.32818735 0.5958717 2.0984993 -1.131009
-1.9305685 -1.5583833 0.15700997 1.7615296 0.031778816 -0.9598489 0.59527016 -1.2608589
4.60939 -0.5475797 0.638796 0.3116882 -0.4029903 -0.6265616 1.083291 -0.38723633
-0.04186324 -0.43654612 0.009503436 3.8669736 0.74422914 -1.1122086 0.45406845 0.36556304
-0.044833917 -1.7575297 -0.54470295 -1.8272041 -0.60490304 0.11712189 -1.1611947 0.78210616
3.3798945 -0.45428002 -1.4528643 0.08796254 -0.77663225 -0.7591886 0.883764 1.1693528
0.12661636 0.15797919 3.0980792 2.029076 0.43400916 -1.1820775 1.1070868 -0.48866236
0.5175095 -1.7464693 -0.9243025 -0.46018106 -2.5988119 0.8601 2.1469321 1.3720586
3.6163838 -3.0517604 -0.2975003 -0.21223886 0.43791717 0.010440516 -0.011082783 -0.28433603
3.0425458 0.26820388 -0.023759458 2.0975006 0.10027185 1.3626964 -0.77362937 0.27919683
-1.8993686 0.9619678 4.32082 1.3773619 -0.30558094 2.9462578 1.0789018 2.8812242
-0.12069626 -0.67785484 5.1979527 3.1663795 -0.6299943 -2.276977 -2.7555225 1.6828648
3.8889506 2.2635076 -0.018704854 0.549055 1.6323559 1.7958317 1.8700981 -1.6961488
-3.9514248 0.7026149 -2.7984815 -0.384008 -1.605214 3.9158182 1.5241975 -1.416953
2.5042348 3.5575683 0.25261074 -1.6013489 -1.3478879 -0.7314771 -0.79440534 -0.9574192
1.5943505 -0.054890417 2.0300243 1.3138249 1.0425992 1.73431 1.0013783 0.013464388
-0.1608047 -0.48832685 -0.5213437 -0.8141587 3.5413144 -0.4709273 -0.90922695 0.056852706
-1.738578 -2.456807 -0.089425035 -0.38275743 -0.020505868 -1.0086507 -2.8704917 0.46390617

layers.2.bias f4 [128]
00000000: e506 26bd b496 e0bf e19e 8abf 2d74 44bf
00000010: cd65 1ac0 6ede 1bbf 9e2c 1dc0 0b88 a0bf
00000020: 45c6 ff3c f8f4 e3bf 290f 37bf 48f1 51bf
00000030: b9f2 efbe 8a0f c0bf e657 1fbf 5fd9 52bf
00000040: 4998 61bf 8590 a83e 3c1d 52bf 68a0 c2bf
00000050: e5e2 37c0 8e9d c0bf 1eed 39c0 9873 06c0
00000060: 45c2 513f b0c8 adbf d944 9cbf ae9c 0cbf
00000070: dfa5 f23d 23fe adbf 4133 09c0 b4de 44c0
00000080: 7733 94bf ef63 19bf cb26 40bf 32f6 aebf
00000090: 1f6e 94bf 0191 e5bf 3c90 1ebf cc35 bdbf
000000a0: f6c0 c6bf 9f63 28bf 0fd9 51c0 c57f cdbe
000000b0: bee7 2bc0 9129 abbf b8e5 40c0 b564 e5bf
000000c0: 7e15 a3bf 3357 1ac0 7e28 f3bd b69b bd3f
000000d0: 8a68 98bf 00d4 a7bf 7290 2cbf 14f2 a1bf
000000e0: 159b 3abe 0cde bebf b132 2fbf 8978 c9bf
000000f0: 3f20 f3be a0bc ab3e 56b5 a0bf 3458 abbf
00000100: f572 aabf ce8f 85be 32db 0ebf 4557 25be
00000110: 7761 8ebf bf7c 0cc0 db21 46bf 3548 06bf
00000120: 5295 eabf 2310 e0bf ba3a aabf 69c1 eebf
00000130: 401f a1bf 5d6c e2bf d1f7 8fbf d8a0 f2bf
00000140: 3539 17c0 b510 d5bf 766c 64bf 5066 aabf
00000150: 61bb 70c0 b61c a6bf 932f 0bbf 7942 b7bf
00000160: 2c14 bfbf b19a 49bf 22f7 2fbf a68c 1dbf
00000170: a08b 26c0 27aa a4bf a89a 1ebf d9ea 74c0
00000180: 2684 d5be 95bd cc3f 5238 83bf ef25 c1bf
00000190: 5f60 14be 7029 eebf 60ad f0bf 87d9 cfbf
000001a0: f693 73bf e175 7fbf 49e4 ddbf 29b3 8abf
000001b0: 54a5 eabf da0e d2bf 01c0 fdbf b126 babe
000001c0: d57c 46bf 2e44 07c0 ea20 86bf 5e20 a2bf
000001d0: 0169 893f e03d 94bf 68e6 c4bf 1fb0 b7bf
000001e0: 8aaa b3bf 7c6a 9abe 0073 c8be da0d ebbf
000001f0: c784 9cbe 844d a9be 5d4b 9abf cf76 7bbe
-0.04053392 -1.7545991 -1.0829736 -0.7673977 -2.4124634 -0.60886276 -2.4558482 -1.2541517
0.031222472 -1.7809134 -0.7150751 -0.8200879 -0.4686487 -1.5004742 -0.622435 -0.8236293
-0.88122994 0.3292276 -0.8207586 -1.5205202 -2.8732235 -1.5048082 -2.9050975 -2.1008053
0.81937057 -1.357687 -1.2208511 -0.54926574 0.11848044 -1.3593181 -2.1437533 -3.0760927
-1.1578206 -0.5991811 -0.75059193 -1.3668883 -1.1596106 -1.7934877 -0.61938834 -1.4782043
-1.5527637 -0.6577701 -3.2788732 -0.40136543 -2.6860194 -1.337206 -3.014021 -1.7921358
-1.2740934 -2.4115722 -0.11872958 1.4813144 -1.1906903 -1.3111572 -0.67407906 -1.2652001
-0.18223222 -1.4911513 -0.68436724 -1.573991 -0.4748554 0.33542347 -1.2555339 -1.3386292
-1.3316332 -0.26086277 -0.55803216 -0.16146572 -1.1123494 -2.195114 -0.7739541 -0.5245393
-1.8326819 -1.7504925 -1.3299172 -1.8652774 -1.2587662 -1.768932 -1.1247503 -1.8955336
-2.3628666 -1.6645724 -0.89228 -1.3312473 -3.7614367 -1.2977512 -0.5436947 -1.4317161
-1.4928031 -0.78751665 -0.6873647 -0.6154274 -2.602272 -1.2864426 -0.61954737 -3.826834
-0.41702384 1.5995356 -1.0251563 -1.5089701 -0.14489888 -1.8606396 -1.880291 -1.6238259
-0.95147645 -0.99789244 -1.7335292 -1.0835925 -1.8331704 -1.6410782 -1.982422 -0.36357644
-0.7753423 -2.1135364 -1.0478795 -1.2666128 1.073517 -1.1581383 -1.5382814 -1.4350623
-1.4036419 -0.30159366 -0.39150238 -1.8363602 -0.3057005 -0.33066952 -1.2054249 -0.2455704

layers.3.weight f4 [128, 128]
00000000: d345 983e 5de7 eabb 08e2 d9be d7ba 3bbe
00000010: eb0a a63f cc63 e53e d4fb 663f e190 41be
00000020: d7c7 283f 83c6 3dbf 0b85 433c a3f9 7040
00000030: eee0 8241 c2a6 d73f d232 063f cae1 b63f
00000040: fdf0 81bf 632e c2bc 558a 213d ca65 63c0
00000050: d440 b6bf 5106 69bf d304 2b40 7b3f 6940
00000060: 4977 d2bc 9675 0abc 35cc 24c0 10c4 b43e
00000070: 5ea3 5a3e 380e 6d3f 0b27 1bc0 cb4a d33e
00000080: a7df 873f adc4 99be 30b6 8abf c96e cc3e
00000090: 67cb b93f fe19 81be 7200 1240 4608 e2bf
000000a0: a96c 63be 5585 2ebd 00ff 76c0 7bc2 923e
000000b0: 7d2d 1b40 2323 3cbf 238a 72bf 0b4f 0c3e
000000c0: 2d2b 2fbf 8f8d 9c3f a242 f8be 6e30 4d3c
000000d0: e0cd 0040 e9f2 8bc0 0d51 4e3a 3138 173f
000000e0: 2080 34bf 1fa9 723f 9f86 043d 2d3f 993f
000000f0: 3cb9 133f 7650 243f 5a65 27c0 62f4 7940
00000100: ce36 4340 d052 713d 8e8b 0fbe 475c d73e
00000110: ab49 5ebe 491e 903e df8b c8bf 987a 543f
00000120: e65a 43bd 536e 8a3b 9786 96be a201 16bf
00000130: 658e d6c0 269c f8bf 55bd 8fbf 2210 be3f
00000140: eea6 e5bf ae3e 0741 a773 b9be 3331 38bf
00000150: 225d 6bbe 917d 973e 58c1 a2be 3d3a f73d
00000160: 4818 0f40 0c5c 253f 86e9 0dc0 4f1c 0b3f
00000170: 993b 51b9 2f6c 1bbc da6f d53e 152d 8a40
00000180: 062b 94bf 10cb 85be 60fa 363d ba75 60c0
00000190: dbed 3f3d eefb 6440 ac14 6fbf 4298 ed3f
000001a0: dc2a b2be b055 3040 7f35 6c3f 2381 7f40
000001b0: 74a3 adbf 728d 5840 15a3 2540 8b90 29be
000001c0: f204 d13d ca23 2fbf d637 e93e 191d 9740
000001d0: 3259 abbd 790a b4bc fbcd 8cbe b1b9 42bf
000001e0: 9d07 83c0 6ca0 9441 5e8c 8bbe 7917 8ebf
000001f0: ce8a 6b3f 7fd4 1f3f ee23 ed3f 87c4 f93e
00000200: e9dc a340 e74a 563f b0ed 52be 4e06 9cbe
00000210: 6929 863f 78cc 4bbd e8da d63e f9ed 51bd
00000220: d20f 893e 2e42 2b3e 6853 8c3d d22f bdbe
00000230: 0b8b 5c40 297a 1440 8fb9 4740 2ff6 c53e
00000240: 924b e83e 2cc3 b43f 5e46 0440 4155 e73e
00000250: 3635 cb3f efbe 043e 2a5f 6ac0 6a09 543e
00000260: 96b2 ddbe 15c0 04c0 9809 6440 f87c 13bf
00000270: 82ad 7b40 0a86 bb3d 0bdf 0940 9171 673f
00000280: 6fa2 203f a668 c13f 4cea 133e 6b9d ac3d
00000290: 29b9 113f 227d 93be 640a 03bf b008 2d40
000002a0: 710c b23e 8fc9 303f 631d 8940 07e5 af40
000002b0: 0418 803f c349 50bf c4a8 3c3f 8a6b 923e
000002c0: a1ca bd3e c0bf 1040 464c 01c0 3aaf 683f
000002d0: aff9 db3e 8163 2640 4b3d 903d 3211 47be
000002e0: fb17 ce40 0350 943e 86bc 0340 2fe6 cbbe
000002f0: e55e d4be e721 903f c704 1ac0 b3e1 813f
00000300: 2d8d 683d a162 853f 8351 b33e 9332 943d
00000310: d5fc 233e 445d c63f d3e9 edbe 3cba afbe
00000320: 50f2 3d3f f69c bc3f 4329 3140 13af 473f
00000330: b5e3 ad3f 1020 863d 5c63 51bf 67d2 1d40
00000340: 5c6a c43e 2dda bc40 97bf 1b3f 2c68 2e3e
00000350: b45a 5440 6f45 953e 5b16 4fc0 9bff bc3f
00000360: af5d 2c3f 9f17 053e 40de 6340 1e1c ffbe
00000370: fd7d ebbf 212a ef3e c6b3 83bd 8cbd f43f
00000380: 95fc 043b bc58 933e 5db0 34bf 1e68 533f
00000390: 2c47 8d3e d205 93be 05dc 14be 7d22 cc3f
000003a0: ee0f 063f ab99 6dbf 6302 48bf 3328 86bf
000003b0: 93af 633c 9ed2 3d3f 574d 383f f03b 7b3f
000003c0: babd 52bf 4349 fdbf 7f3c c6bd f06e 723f
000003d0: e810 0d3d f0b0 dbbd f47d 82be 4bd4 923f
000003e0: 0a90 583f d1bf 7f40 074e bb3e ed8f 7cbf
000003f0: f5a7 6bbf a704 9cbf d15f 6040 56dc 9540
0.29740772 -0.007168694 -0.4255526 -0.18332992 1.2972082 0.448027 0.9022801 -0.18902923
0.6592993 -0.7413103 0.011933575 3.7652366 16.359829 1.6847765 0.52421296 1.4287655
-1.0151669 -0.02370376 0.039438564 -3.5530877 -1.4238534 -0.91025263 2.6721694 3.6444995
-0.025691645 -0.008450886 -2.5749638 0.35305834 0.21351382 0.9259982 -2.424258 0.41268
1.0615128 -0.30032864 -1.0836849 0.39928272 1.4515198 -0.25215143 2.2812772 -1.7658775
-0.2220942 -0.042607624 -3.859314 0.28664002 2.4246514 -0.73491114 -0.9474203 0.13702027
-0.68425256 1.22307 -0.48488337 0.012523754 2.0125656 -4.373402 0.0007870354 0.59070116
-0.70508003 0.9478931 0.032354947 1.1972405 0.5770452 0.64185274 -2.615561 3.905541
3.05022 0.058916867 -0.1401808 0.4206259 -0.2170779 0.28148106 -1.5667685 0.82999563
-0.04769411 0.0042245775 -0.2939956 -0.5859624 -6.704882 -1.9422653 -1.1229655 1.4848673
-1.7941568 8.452803 -0.36221048 -0.7195007 -0.22984746 0.29587987 -0.31788135 0.12071655
2.235857 0.6459358 -2.2173781 0.5434007 -0.00019953995 -0.009486242 0.41686898 4.318003
-1.157563 -0.26131487 0.04467237 -3.5071855 0.046857696 3.5778766 -0.9339092 1.856209
-0.34798324 2.75523 0.9226913 3.9922569 -1.3565507 3.3836331 2.5880787 -0.16559045
0.10206021 -0.68413985 0.45550412 4.722302 -0.08366622 -0.02197765 -0.275009 -0.7606459
-4.0946794 18.578331 -0.2725553 -1.1100913 0.92008674 0.6243362 1.852659 0.4878275
5.1207166 0.8370804 -0.20598483 -0.3047356 1.0481387 -0.049755543 0.41963887 -0.05125234
0.26769882 0.16724464 0.06851846 -0.36950547 3.4459865 2.319956 3.1207006 0.38664386
0.45370156 1.4122062 2.0667949 0.4518223 1.5875614 0.1296346 -3.6620584 0.20706716
-0.43300313 -2.0742238 3.5630856 -0.5761256 3.932465 0.09156425 2.1542385 0.90407664
0.62747854 1.5110061 0.14444846 0.084284626 0.56923157 -0.28806406 -0.5118773 2.7036552
0.34775117 0.69057554 4.2848372 5.4967074 1.0007329 -0.8136255 0.73695016 0.2859767
0.37068656 2.2617035 -2.0202804 0.90892375 0.4296393 2.5998232 0.07042941 -0.19440153
6.4404273 0.28967294 2.0583816 -0.39824054 -0.4147865 1.1260346 -2.4065416 1.0147003
0.05677526 1.0420724 0.35023126 0.07236209 0.16014417 1.5497212 -0.46467456 -0.34321773
0.74197865 1.4735401 2.7681434 0.7800152 1.3585116 0.06549084 -0.81792235 2.465967
0.38362396 5.901633 0.6083922 0.17031926 3.318036 0.29154536 -3.2357395 1.4765505
0.6733045 0.12997292 3.56044 -0.4982614 -1.8397824 0.4671183 -0.064307734 1.9120345
0.0020292152 0.28778636 -0.7058161 0.82580745 0.27593362 -0.28715378 -0.14537056 1.5948025
0.52368057 -0.92812604 -0.7812864 -1.0481018 0.013896841 0.741495 0.7199301 0.9813833
-0.8232075 -1.9787983 -0.096795075 0.9470053 0.03443995 -0.107271075 -0.2548672 1.1471037
0.84594786 3.9960825 0.36582968 -0.98657113 -0.9205316 -1.218892 3.5058482 4.6831465

layers.3.bias f4 [128]
00000000: ddf4 b9be 9c99 86c0 abbc 9d3d c3c0 f7bf
00000010: 899c 41c0 086c 9ebf fd40 8fbf 40af 593e
00000020: 00f6 fbbf 6eed 29c0 a074 17bf 8c04 99be
00000030: ec4e 29c0 d132 e0bf 7feb d2bf 4d76 bbbf
00000040: 322b 95be def3 eebf 00c1 86bf 9fa6 35c0
00000050: e437 a6bf ef09 4ec0 5041 9cbf 8f14 f1c0
00000060: 0e75 86c0 9c4b 18c0 b7e2 26c0 ab68 3f3e
00000070: 6ff5 c9be bba2 4fc0 2e82 78bf 2d1f 9fbf
00000080: 5249 4ac0 b768 2cc0 dd16 17c0 fcd4 63c0
00000090: 248c 0dc0 fcf6 c8bf 3fa0 22c0 d388 7ec0
000000a0: 6bd0 afbf 1803 acbd e722 b5bd 15df cbbf
000000b0: 9536 3cbf d059 d9bf 432d f0bf 44fa 14c0
000000c0: 433e 71bf 5b95 45c0 505e eabf fd3e 1ec0
000000d0: 79d4 31c0 2a11 88c0 33b8 653d 81e4 2dc0
000000e0: 8f32 fdbf 7257 33c0 83fe 08c0 94c1 97c0
000000f0: ab0f c9bd 2615 6cc0 e8d7 0cc0 9f3c cec0
00000100: b4b8 fdbf 45b5 82bf 3d38 cac0 27c0 d7bf
00000110: 4aa6 0bbf 7873 57bf a72a e6bc aa57 bbbf
00000120: 912a e8be 88cf 8ebf 5d06 c3bf 856d 41bf
00000130: 347a 9dbf e2cd 28be ec80 a8bf caf3 1ac0
00000140: 0063 14c0 47a1 e4bf 57f0 36c0 30ed e7bf
00000150: 6088 b5bf 83e0 c6bf fe6a 0cc0 43c9 a1bf
00000160: 45d4 20c0 8856 4fc0 b3b6 aebf b5d8 eabf
00000170: e55d da3d 8741 80c0 f941 a1bf bf33 5fbe
00000180: 80d3 26c0 016b 9cc0 6be1 5ebf 6086 dd3e
00000190: a354 89c0 92da 40bf a360 3dc0 7d4f dcbf
000001a0: d2f0 fcbf e700 81c0 cb58 04c0 320c 2dc0
000001b0: b9f5 05be b290 f4bf b1c3 27c0 eab4 56bf
000001c0: c5aa dcbf 5a51 14c0 c8c1 2bc0 9ae6 51c0
000001d0: 9ae3 01c0 9972 f4bf 93cd d6bf 0830 0fc0
000001e0: 2578 5cc0 b7f2 8bc0 f4d4 43bf c1b0 ccbe
000001f0: 4422 debf 67bc 3cc0 f9a6 26c0 a9fc 9abc
-0.36319628 -4.206251 0.07702001 -1.9355701 -3.0251791 -1.2376719 -1.1191708 0.21258259
-1.9684448 -2.6551166 -0.5916233 -0.29886281 -2.645442 -1.7515508 -1.6478118 -1.4645478
-0.29134518 -1.8668172 -1.0527649 -2.8382947 -1.2985806 -3.2193563 -1.2207432 -7.5337596
-4.201789 -2.3796148 -2.6075876 0.18692271 -0.39445063 -3.2443073 -0.9707364 -1.2431389
-3.160725 -2.6938913 -2.3607705 -3.5598745 -2.2116785 -1.5700374 -2.5410306 -3.977101
-1.3735479 -0.083990276 -0.08844548 -1.5927454 -0.73520786 -1.6980534 -1.8763813 -2.327775
-0.9423563 -3.087241 -1.8310032 -2.4725945 -2.7785933 -4.252095 0.05608387 -2.7170718
-1.9781054 -2.8022122 -2.1405342 -4.74238 -0.098174416 -3.6887908 -2.2006779 -6.4449
-1.9821992 -1.0211569 -6.319365 -1.6855515 -0.5455061 -0.84160566 -0.02809651 -1.4636128
-0.45344976 -1.1157084 -1.5236317 -0.7555774 -1.2302918 -0.16484788 -1.3164344 -2.4211297
-2.3185425 -1.7861718 -2.8584192 -1.8119259 -1.4182243 -1.5537266 -2.1940303 -1.2639545
-2.512956 -3.2396564 -1.3649505 -1.8347384 0.1066244 -4.007999 -1.2598258 -0.21797083
-2.606659 -4.888062 -0.8706271 0.43266582 -4.2915816 -0.7533351 -2.9590232 -1.7211758
-1.9760993 -4.03136 -2.0679195 -2.7038693 -0.13082017 -1.9106658 -2.621319 -0.838698
-1.7239615 -2.3174653 -2.6837025 -3.2796998 -2.0295167 -1.9097472 -1.6781486 -2.2373066
-3.444833 -4.3733783 -0.76496816 -0.39978603 -1.7354207 -2.9489992 -2.6039412 -0.018919306

layers.4.weight f4 [6, 128]
00000000: c516 2d3d e6bd 8bbe 4954 e9bc 17cf 0d3f
00000010: 2f9d afbe 0dcd c040 c23d 3440 4fab 0640
00000020: 8f98 9740 b848 44be 8660 cfbf e923 863d
00000030: c81e 083f cafc 0a3e babc 2740 2b92 78be
00000040: cebd 4f40 2dc1 71bf 0cd1 4c3f d49b adbe
00000050: 2b29 f63f 6f88 debb 06e7 b541 27fb 2d3d
00000060: d248 ecbe 7328 2c40 b30a b53e 21ff 65bf
00000070: b4c1 8d41 17ec 15c0 dfe6 d23e ec10 9d3f
00000080: 6d6a c140 7e68 873f 5701 cd40 5ad3 3fbf
00000090: a796 acbd f168 34c0 cfd0 a2be 63dd e6bd
000000a0: 7cfc 49bf 5fe1 17bc 80f7 1341 be28 8d40
000000b0: 8d13 ba3e 9e7d 4bbf 9f7a ba40 e318 a040
000000c0: 479f 5340 bfba 49c0 a453 863d 2901 94bf
000000d0: 222d 3bbe 2d68 88bf 282e 83be ad12 1a41
000000e0: b660 d43f 2211 1d3e a682 54be 5b64 7e3a
000000f0: fce3 d1bb 5372 5a3d 2da6 5940 6b2c 15be
00000100: 19e4 1340 730e 0240 a236 1c3e 811a 023f
00000110: 4dfc c73f 5b9b 0640 04f5 b2b9 87b9 d9bd
00000120: 2195 203f 780d 2b3f 3160 d23f 6b15 3240
00000130: 8c2d 9940 c9d5 98bb bfdc 883f 3709 953e
00000140: 6cb4 7b40 f0bd 6540 ca7a b23e 1bbb 4040
00000150: ef57 cf40 be84 c140 156c 223f 1b10 5b3f
00000160: d9b7 a1bf 1a86 873e 4b14 123f b97a 82bd
00000170: aa32 ee3f 35fc 12bf 0870 a440 e4e7 83bd
00000180: 1607 efc0 3379 9e3d 0a0e 8540 268f 4441
00000190: 3201 15bf ab44 7840 505c f43e 564f 31bf
000001a0: e49b 88be ac13 1dbf 3764 e140 cd01 3f3d
000001b0: 564e 593c bff5 94bd 563a ee40 1439 81bf
000001c0: c92d b03e a118 fd3f a395 27bd 6511 253e
000001d0: b7b2 ed3f 9746 e13f 84b6 393f fae9 a43f
000001e0: a7c8 5b40 ccb1 75bf 4159 1740 462d 853d
000001f0: af19 153e f643 8abf 6df7 1240 f1d4 2641
00000200: e829 ffbd 3574 b8bf f933 a3bc fbe0 e1bf
00000210: 4357 553e b617 f73f 428c 2240 c0cd 8ebf
00000220: 426e 94bf d0c8 d3bf 41f1 8dbf 3108 c13e
00000230: 12e6 6f3f c3cd 923f 2f0a 023f 0d82 bdbf
00000240: a6f3 aa3f 2846 95bf 1bcf 083f 5ca8 94be
00000250: d541 173f 043b dcbc 7b27 5d3e 501d 563f
00000260: bdba 91bf aab7 0d41 b2c4 d53f 4ec2 c0bc
00000270: 7a35 6cbf c6d6 c7bf 1cd7 01c0 20f9 3f40
00000280: f297 27bf 24d9 30bf 10b2 ca40 957a 2dbf
00000290: 28e8 40bf cd9f 923e 95f0 4a3e 5336 183e
000002a0: 4511 00bf f901 163c fca8 e13f d3c1 7ebf
000002b0: 0ca0 11bf d879 2bbf aeca 393e a84b 253f
000002c0: abeb dc3f fd01 743e ab34 5e3f 6d5d cabf
000002d0: 7dda 023e 1361 e5be 7cc1 21be f810 f5be
000002e0: 52d9 123d f82b 023f 0fe7 90bd 8b8c e4b7
000002f0: c62f afbb dfcf 97c0 388e 9cbe a837 18bd
00000300: 68a2 1640 df00 02bf eef3 8fbc 093d 57bd
00000310: 087b 51bf 68a4 1b41 58a1 99bb 5e8e a23b
00000320: 0802 4340 97cf 1d3f 4339 b33f 353b 6540
00000330: 934b 4b40 d6b9 203c 437a 153f 5568 e73e
00000340: e36a 0b3f 52bb 003e ccae 443c 6018 1a40
00000350: b6ce 7a41 a25c ac40 7bfa 913e 5686 5940
00000360: cf2b 27bf aa99 013f cc90 293f f06c 9ebd
00000370: 52bc f93f cda6 41bf 5a6e 15bf 4056 a13c
00000380: a4ca 3b3f fffa f13d 520c bf3f 4568 ff3e
00000390: 8811 03c1 089f 85bf 36ca bd40 a18c ca3f
000003a0: 0c78 b0bf a6a3 8f3d 077c f53f f886 f13e
000003b0: 2a79 a4bb 4705 923f e3ad ff40 50b7 f2be
000003c0: 2313 643f c38e b3c0 25d2 1b3e afbb a1bc
000003d0: fd9d 0840 68ab 8e40 db29 ca3f ddcc d83e
000003e0: 5789 a040 f8f5 c7bd 75be d93f 02b0 cf3d
000003f0: 30a4 a13d 1df8 b43d a4f2 3e3e d72e 81be
0.042258043 -0.2729332 -0.028482573 0.5539412 -0.3429961 6.0250306 2.8162694 2.1042058
4.737373 -0.19168365 -1.6201332 0.06549818 0.5317197 0.13572994 2.620894 -0.24274509
3.2459598 -0.9443539 0.8000648 -0.3390795 1.9231313 -0.0067911665 22.737804 0.042475846
-0.46149307 2.6899688 0.35359725 -0.8984242 17.719582 -2.3425348 0.41191766 1.2270789
6.0442414 1.0578763 6.4064136 -0.7493187 -0.08427172 -2.818905 -0.31799933 -0.11272695
-0.78900886 -0.009270041 9.247925 4.4112234 0.3634304 -0.7948855 5.8274684 5.003038
3.3065965 -3.152023 0.06558922 -1.1562854 -0.18278936 -1.0656792 -0.25621152 9.6295595
1.6592014 0.15338567 -0.20752963 0.0009704285 -0.0064053517 0.053331684 3.4007676 -0.14567725
2.310797 2.032132 0.15255216 0.5082169 1.5623871 2.1032321 -0.00034133357 -0.1063109
0.6272755 0.66817427 1.6435605 2.7825572 4.78681 -0.004664157 1.0692366 0.29108593
3.932887 3.5897179 0.34859306 3.01142 6.479484 6.047454 0.6344617 0.8557145
-1.2634231 0.264695 0.57062215 -0.06371064 1.8609211 -0.5741609 5.1386757 -0.06440714
-7.469615 0.07737961 4.1579638 12.284948 -0.5820495 3.8791912 0.4772668 -0.6926168
-0.26681435 -0.6135814 7.0434833 0.046632577 0.013263306 -0.07273435 7.444621 -1.0095544
0.3440993 1.9773141 -0.04091419 0.16119917 1.8570164 1.7599667 0.7254412 1.2883904
3.4341218 -0.9597442 2.3648226 0.06502776 0.14560579 -1.080199 2.2963517 10.426988
-0.12459165 -1.4410464 -0.019922243 -1.7646784 0.20834069 1.9304111 2.5398107 -1.115654
-1.1596148 -1.6545658 -1.108925 0.37701562 0.93710434 1.1469043 0.5079679 -1.4805313
1.3355606 -1.1662035 0.5344102 -0.29034698 0.59084827 -0.02688361 0.21597092 0.8363848
-1.1385113 8.85734 1.6700652 -0.023530152 -0.922691 -1.5612419 -2.0287542 2.9995804
-0.65466225 -0.6908133 6.334236 -0.6776517 -0.7535424 0.28637543 0.19818337 0.14864473
-0.5002635 0.009155744 1.7629695 -0.995145 -0.5688484 -0.66982794 0.18143722 0.6456857
1.725942 0.23828883 0.86799115 -1.5809761 0.12778659 -0.44800624 -0.15796465 -0.4786451
0.035851784 0.5084834 -0.07075321 -2.7245163e-05 -0.005346271 -4.744125 -0.30577254 -0.037162453
2.3536625 -0.5078258 -0.01757237 -0.052548442 -0.81828356 9.727638 -0.004688423 0.004960819
3.046999 0.6164488 1.400185 3.5817387 3.1764877 0.009809932 0.5838968 0.45196787
0.5445997 0.12571457 0.012004565 2.4077377 15.675467 5.3863077 0.28511414 3.3988242
-0.6530122 0.506251 0.6623657 -0.07735622 1.9510596 -0.7564514 -0.5837151 0.019694448
0.7335608 0.11815452 1.4925635 0.4988424 -8.19178 -1.0439157 5.930934 1.5824167
-1.3786635 0.07013635 1.9178475 0.47173285 -0.0050193267 1.140786 7.9899764 -0.4740548
0.890917 -5.611177 0.15216883 -0.019742815 2.1346428 4.4584236 1.5794023 0.42343798
5.016765 -0.09763712 1.7011248 0.10140993 0.078926444 0.08836386 0.18647248 -0.25231048

layers.4.bias f4 [6]
00000000: 913a e1bf 77a8 acbf 520c a4bf 9783 c8bf
00000010: 5650 60bf ce96 c7bf
-1.7595998 -1.3488911 -1.281626 -1.5665158 -0.8762258 -1.5592897
